…
></li>\n</ol>\n</div>"
        ]
    },
    {
        "question": "<div class=\"s-prose js-post-body\" itemprop=\"text\">\n<p>How do I print the summary of a model in PyTorch like what <code>model.summary()</code> does in Keras:</p>\n<pre><code>Model Summary:\n____________________________________________________________________________________________________\nLayer (type)                     Output Shape          Param #     Connected to                     \n====================================================================================================\ninput_1 (InputLayer)             (None, 1, 15, 27)     0                                            \n____________________________________________________________________________________________________\nconvolution2d_1 (Convolution2D)  (None, 8, 15, 27)     872         input_1[0][0]                    \n____________________________________________________________________________________________________\nmaxpooling2d_1 (MaxPooling2D)    (None, 8, 7, 27)      0           convolution2d_1[0][0]            \n____________________________________________________________________________________________________\nflatten_1 (Flatten)              (None, 1512)          0           maxpooling2d_1[0][0]             \n____________________________________________________________________________________________________\ndense_1 (Dense)                  (None, 1)             1513        flatten_1[0][0]                  \n====================================================================================================\nTotal params: 2,385\nTrainable params: 2,385\nNon-trainable params: 0\n</code></pre>\n</div>",
        "answers": [
            "<div class=\"s-prose js-post-body\" itemprop=\"text\">\n<p>Yes, you can get exact Keras representation, using the <a href=\"https://github.com/sksq96/pytorch-summary\" rel=\"noreferrer\">pytorch-summary</a> package.</p>\n<p>Example for VGG16:</p>\n<pre><code>from torchvision import models\nfrom torchsummary import summary\n\nvgg = models.vgg16()\nsummary(vgg, (3, 224, 224))\n\n----------------------------------------------------------------\n        Layer (type)               Output Shape         Param #\n================================================================\n            Conv2d-1         [-1, 64, 224, 224]           1,792\n              ReLU-2         [-1, 64, 224, 224]               0\n            Conv2d-3         [-1, 64, 224, 224]          36,928\n              ReLU-4         [-1, 64, 224, 224]               0\n         MaxPool2d-5         [-1, 64, 112, 112]               0\n            Conv2d-6        [-1, 128, 112, 112]          73,856\n              ReLU-7        [-1, 128, 112, 112]               0\n            Conv2d-8        [-1, 128, 112, 112]         147,584\n              ReLU-9        [-1, 128, 112, 112]               0\n        MaxPool2d-10          [-1, 128, 56, 56]               0\n           Conv2d-11          [-1, 256, 56, 56]         295,168\n             ReLU-12          [-1, 256, 56, 56]               0\n           Conv2d-13          [-1, 256, 56, 56]         590,080\n             ReLU-14          [-1, 256, 56, 56]               0\n           Conv2d-15          [-1, 256, 56, 56]         590,080\n             ReLU-16          [-1, 256, 56, 56]               0\n        MaxPool2d-17          [-1, 256, 28, 28]               0\n           Conv2d-18          [-1, 512, 28, 28]       1,180,160\n             ReLU-19          [-1, 512, 28, 28]               0\n           Conv2d-20          [-1, 512, 28, 28]       2,359,808\n             ReLU-21          [-1, 512, 28, 28]               0\n           Conv2d-22          [-1, 512, 28, 28]       2,359,808\n             ReLU-23          [-1, 512, 28, 28]               0\n        MaxPool2d-24          [-1, 512, 14, 14]               0\n           Conv2d-25          [-1, 512, 14, 14]       2,359,808\n             ReLU-26          [-1, 512, 14, 14]               0\n           Conv2d-27          [-1, 512, 14, 14]       2,359,808\n             ReLU-28          [-1, 512, 14, 14]               0\n           Conv2d-29          [-1, 512, 14, 14]       2,359,808\n             ReLU-30          [-1, 512, 14, 14]               0\n        MaxPool2d-31            [-1, 512, 7, 7]               0\n           Linear-32                 [-1, 4096]     102,764,544\n             ReLU-33                 [-1, 4096]               0\n          Dropout-34                 [-1, 4096]               0\n           Linear-35                 [-1, 4096]      16,781,312\n             ReLU-36                 [-1, 4096]               0\n          Dropout-37                 [-1, 4096]               0\n           Linear-38                 [-1, 1000]       4,097,000\n================================================================\nTotal params: 138,357,544\nTrainable params: 138,357,544\nNon-trainable params: 0\n----------------------------------------------------------------\nInput size (MB): 0.57\nForward/backward pass size (MB): 218.59\nParams size (MB): 527.79\nEstimated Total Size (MB): 746.96\n----------------------------------------------------------------\n</code></pre>\n</div>",
…
tch size we provide.</p>\n<p>If we set <code>summary(alexnet, (3, 224, 224), 32)</code> this means use the <code>bs=32</code>.</p>\n<pre><code>summary(model, input_size, batch_size=-1, device='cuda')\n</code></pre>\n<hr/>\n<p>Out:</p>\n<pre><code>Help on function summary in module torchsummary.torchsummary:\n\nsummary(model, input_size, batch_size=-1, device='cuda')\n\n----------------------------------------------------------------\n        Layer (type)               Output Shape         Param #\n================================================================\n            Conv2d-1           [32, 64, 55, 55]          23,296\n              ReLU-2           [32, 64, 55, 55]               0\n         MaxPool2d-3           [32, 64, 27, 27]               0\n            Conv2d-4          [32, 192, 27, 27]         307,392\n              ReLU-5          [32, 192, 27, 27]               0\n         MaxPool2d-6          [32, 192, 13, 13]               0\n            Conv2d-7          [32, 384, 13, 13]         663,936\n              ReLU-8          [32, 384, 13, 13]               0\n            Conv2d-9          [32, 256, 13, 13]         884,992\n             ReLU-10          [32, 256, 13, 13]               0\n           Conv2d-11          [32, 256, 13, 13]         590,080\n             ReLU-12          [32, 256, 13, 13]               0\n        MaxPool2d-13            [32, 256, 6, 6]               0\nAdaptiveAvgPool2d-14            [32, 256, 6, 6]               0\n          Dropout-15                 [32, 9216]               0\n           Linear-16                 [32, 4096]      37,752,832\n             ReLU-17                 [32, 4096]               0\n          Dropout-18                 [32, 4096]               0\n           Linear-19                 [32, 4096]      16,781,312\n             ReLU-20                 [32, 4096]               0\n           Linear-21                 [32, 1000]       4,097,000\n================================================================\nTotal params: 61,100,840\nTrainable params: 61,100,840\nNon-trainable params: 0\n----------------------------------------------------------------\nInput size (MB): 18.38\nForward/backward pass size (MB): 268.12\nParams size (MB): 233.08\nEstimated Total Size (MB): 519.58\n-----------------------------------------------------------
…
code>InputSize = 15\nMaxLen = 64\nHiddenSize = 16\n\ninputs = keras.layers.Input(shape=(MaxLen, InputSize))\nx = keras.layers.recurrent.GRU(HiddenSize, return_sequences=True)(inputs)\nx = keras.layers.TimeDistributed(keras.layers.Dense(InputSize))(x)\npredictions = keras.layers.Activation('softmax')(x)\n</code></pre>\n<p>The summary of the network is:</p>\n<pre><code>_________________________________________________________________\nLayer (type)                 Output Shape              Param #   \n=================================================================\ninput_1 (InputLayer)         (None, 64, 15)            0         \n_________________________________________________________________\ngru_1 (GRU)                  (None, 64, 16)            1536      \n_________________________________________________________________\ntime_distributed_1 (TimeDist (None, 64, 15)            255       \n_________________________________________________________________\nactivation_1 (Activation)    (None, 64, 15)            0         \n=================================================================\n</code></pre>\n<p>This makes sense to me as my understanding of TimeDistributed is that it applies the same layer at all timepoints, and so the Dense layer has 16*15+15=255 parameters (weights+biases).</p>\n<p>However, if I switch to a simple Dense layer:</p>\n<pre><code>inputs = keras.layers.Input(shape=(MaxLen, InputSize))\nx = keras.layers.recurrent.GRU(HiddenSize, return_sequences=True)(inputs)\nx = keras.layers.Dense(InputSize)(x)\npredictions = keras.layers.Activation('softmax')(x)\n</code></pre>\n<p>I still only have 255 parameters:</p>\n<pre><code>_________________________________________________________________\nLayer (type)                 Output Shape              Param #   \n=================================================================\ninput_1 (InputLayer)         (None, 64, 15)            0         \n_________________________________________________________________\ngru_1 (GRU)                  (None, 64, 16)            1536      \n_________________________________________________________________\ndense_1 (Dense)              (None, 64, 15)            255       \n_________________________________________________________________\nactivation_1 (Activation)    (None, 64, 15)            0         \n=================================================================\n</code></pre>\n<p>I wonder if this is because Dense() will only use the last dimension in the shape, and effectively treat everything else as a batch-like dimension. But then I'm no longer sure what the difference is between Dense and TimeDistributed(Dense).</p>\n<p><strong>Update</strong> Looking at <a href=\"https://gi
…
